model.tflite (tflite, 271580 bytes, 5 tensors)

model/dense_1/BiasAdd/ReadVariableOp f4 [256]
0	0xbc16c696	-0.00920262
1	0xbbaf8f9f	-0.005357697
2	0x3ce21d3b	0.027601829
3	0x00000000	0.0
4	0xbc10ee58	-0.008845888
5	0x3c9517c0	0.018199801
6	0xbc22ab84	-0.009928588
7	0xbd014a13	-0.031564783
8	0x3cf499d0	0.0298585
9	0x3cca82a2	0.024720494
10	0xbc7aaf10	-0.015300527
11	0x3c8a1653	0.016856348
12	0xbc078f45	-0.008273904
13	0xbc0dc0b1	-0.008651898
14	0x3cc22e44	0.023703702
15	0xbc8ee7b6	-0.017444473
16	0xbb62e224	-0.0034619654
17	0xbcb3cb42	-0.021947507
18	0x3cbb20f7	0.022842867
19	0xbbb49499	-0.0055108783
20	0xbbb58afd	-0.0055402503
21	0x3c8edf95	0.017440597
22	0x00000000	0.0
23	0xbc0e72eb	-0.008694391
24	0xbc5397b4	-0.012914587
25	0xbb154ffb	-0.0022783268
26	0xbc609577	-0.01370751
27	0xbc20e8e0	-0.009821147
28	0xbb9fe657	-0.0048797536
29	0xbbfa71e8	-0.007642973
30	0xbce1afd5	-0.027549664
31	0xbcd150c8	-0.025551215
32	0xbd3429bc	-0.043985114
33	0xbbf6840b	-0.007523065
34	0xbc655cfb	-0.013999219
35	0xbc9d1d05	-0.019178877
36	0xbc49c3d2	-0.012314754
37	0x00000000	0.0
38	0xbcb51556	-0.0221049
39	0xbbe531a2	-0.006994442
40	0xbbc399cd	-0.005969262
41	0x3cddd73a	0.027080167
42	0xbc1ac996	-0.009447476
43	0xbc76ec17	-0.015070937
44	0xbc1005e8	-0.008790471
45	0xbbd27d92	-0.0064236606
46	0xbb64d683	-0.0034917898
47	0xbc4cd6f5	-0.012502422
48	0xbc5334b8	-0.012890987
49	0x3cd5c085	0.026092777
50	0xbcc965de	-0.024584707
51	0x3cc6c65e	0.02426451
52	0xbc7f83bc	-0.015595373
53	0xbc029a7b	-0.007971401
54	0xbc3dff04	-0.011596445
55	0xbc029413	-0.007969874
56	0xbcb1713a	-0.021660436
57	0x3c7e5530	0.01552324
58	0xbc837cfe	-0.016050812
59	0xbbb1081b	-0.0054025776
60	0x00000000	0.0
61	0xbc081a34	-0.008307029
62	0xbc430c96	-0.011904856
63	0xbbb0416a	-0.0053788917
64	0xbc9f1d1c	-0.01942306
65	0xbc3f0ebc	-0.011661228
66	0xbc0e0f4c	-0.008670639
67	0x00000000	0.0
68	0xbbb97db5	-0.0056607374
69	0x3c69a066	0.014259433
70	0xbbc1216a	-0.005893876
71	0xbcacdb6b	-0.02110072
72	0x3c774837	0.015092901
73	0xbb03abbd	-0.0020091378
74	0xbd2c5015	-0.04206856
75	0xbc90da5a	-0.017682243
76	0xbbdd0443	-0.006744893
77	0xbd0ecf88	-0.034865886
78	0xbbd8db5c	-0.0066179466
79	0xbcbf0648	-0.023318425
80	0xbc90720f	-0.017632512
81	0xbc503a13	-0.0127091585
82	0xbc7e8293	-0.015534061
83	0xbc4e74a6	-0.012601053
84	0xbd35d6ab	-0.044394176
85	0xbc88cbbb	-0.016698709
86	0xbccd14c9	-0.025034325
87	0x3c78ed06	0.01519323
88	0xbc1f75c7	-0.00973267
89	0xbc1f27d8	-0.009714089
90	0xbc472a54	-0.012156088
91	0x3c830d85	0.015997658
92	0xbb317df9	-0.0027083142
93	0xbc78088c	-0.0151387565
94	0xbcde9138	-0.027168855
95	0x3d69ac5c	0.05704914
96	0xbd3ce239	-0.04611418
97	0x3bbde162	0.00579469
98	0xbc070ffd	-0.008243558
99	0xbc1812d3	-0.009281832
100	0xbbf0ebeb	-0.0073523424
101	0x3c775cd7	0.015097818
102	0xbcde5fdb	-0.027145317
103	0xbb25d78f	-0.0025305485
104	0x3b1daa83	0.0024057932
105	0xbc6c3bdf	-0.014418571
106	0xbc6be688	-0.014398225
107	0xbc679e10	-0.014136806
108	0x3d03aaa5	0.03214516
109	0xbbf59f7c	-0.0074958187
110	0x00000000	0.0
111	0xbca93014	-0.020652808
112	0xbd4ef77f	-0.050529
113	0xbaae57ee	-0.0013301352
114	0x3cb40c6c	0.02197858
115	0x3bf07305	0.00733793
116	0xbc569780	-0.013097644
117	0x3cc148ed	0.023594344
118	0x3c8baa73	0.01704905
119	0xbc205095	-0.009784837
120	0xbc2bc74f	-0.010484531
121	0x3c95494e	0.018223431
122	0xbbbedde7	-0.0058247927
123	0x3c3aa5c9	0.011392065
124	0xbc4d2515	-0.012521048
125	0xbc12dbdb	-0.00896355
126	0x3c525481	0.01283753
127	0x3a5c21f0	0.0008397391
128	0xbd1ff671	-0.039053384
129	0xbb860f73	-0.004091197
130	0xbcf901b2	-0.030396316
131	0xbbc3ca91	-0.0059750755
132	0xbd0064ce	-0.031346135
133	0xbbe31edb	-0.0069311685
134	0xbcfe8d15	-0.031073133
135	0xbc54b218	-0.012981914
136	0xbd1cd562	-0.038289435
137	0xbbcaecaf	-0.0061927657
138	0x3b9a7e35	0.004714752
139	0x3c62ec5f	0.013850301
140	0xbc39836a	-0.011322835
141	0x3b5c399d	0.0033603676
142	0x00000000	0.0
143	0x3c84b380	0.016198874
144	0x3c10b30a	0.008831749
145	0xbb7df162	-0.0038748612
146	0xbb9bfa83	-0.004760088
147	0x3c3b658b	0.011437784
148	0xbd23ea1f	-0.040018197
149	0x3c2091c2	0.009800376
150	0xbc1d675b	-0.009607161
151	0x3b25a975	0.0025278006
152	0xbc1c7f5f	-0.009551852
153	0x3aedbc71	0.0018137825
154	0x3cbe31e8	0.023217157
155	0xbd01194e	-0.031518273
156	0xbce7b01f	-0.028282223
157	0xbd16e3f5	-0.03683849
158	0xbbc2d68b	-0.0059459857
159	0x3c6a4d7b	0.014300699
160	0x3d0fc3c5	0.03509881
161	0xbbbad35f	-0.005701467
162	0xbc27f391	-0.010250942
163	0x394cbea9	0.00019525982
164	0xbbc45e3b	-0.0059926785
165	0x3cc3c931	0.023899646
166	0x3cb311e7	0.021859122
167	0x3d376fb9	0.04478428
168	0x00000000	0.0
169	0xbc7e6283	-0.015526417
170	0xbb9b0888	-0.0047312416
171	0xbbe717c3	-0.007052393
172	0xbc952ef6	-0.01821087
173	0xbba5375f	-0.005042001
174	0x00000000	0.0
175	0xbc4f82e9	-0.012665489
176	0xbbe6a0d3	-0.0070382147
177	0x3caa791a	0.020809699
178	0xbcea221e	-0.028580721
179	0xbcae6f41	-0.021293284
180	0xbc02cbdd	-0.007983175
181	0xbba90ab3	-0.005158746
182	0xba30558e	-0.0006726616
183	0xbb0bc6b0	-0.0021328144
184	0xbbb3de94	-0.00548918
185	0xbcf4fbf1	-0.029905291
186	0x00000000	0.0
187	0xbcf22b01	-0.029561521
188	0xbd0b4a5a	-0.034006454
189	0xbcf7ffe0	-0.030273378
190	0xbc964be9	-0.018346744
191	0xbcfeb790	-0.031093389
192	0xbc8401d2	-0.01611415
193	0xbcf66946	-0.030079495
194	0x3ca7fd75	0.0205066
195	0x3ca42cc4	0.020040877
196	0xbc099196	-0.008396527
197	0xbd4feadb	-0.050761085
198	0x3d21147b	0.039326172
199	0xbb804c34	-0.003915334
200	0xbd3faa27	-0.04679313
201	0xbc187743	-0.009305778
202	0x3cafcace	0.02145901
203	0xbc2b0856	-0.010438999
204	0xbc9d6b7c	-0.019216292
205	0xbb91f2a6	-0.004453975
206	0xbbfcdb6a	-0.007716586
207	0xbcf2996e	-0.029614177
208	0x3c500dd4	0.012698609
209	0xbc2f9bd8	-0.010718308
210	0x3bf7a62f	0.0075576524
211	0xbc22a312	-0.009926574
212	0x3c817a0e	0.01580527
213	0xbd11adb4	-0.035566047
214	0x3c9dba78	0.019253954
215	0xbc56ad33	-0.013102817
216	0xbc992dc1	-0.018698575
217	0xbc7a4416	-0.015275022
218	0xbc31d728	-0.01085452
219	0xbcadc07e	-0.021209951
220	0xbd63e316	-0.055636488
221	0x3cad74bc	0.021173827
222	0xbbcf9a78	-0.006335553
223	0xbc8f7a61	-0.01751441
224	0xbc20a077	-0.009803883
225	0xbd2faa3f	-0.04288697
226	0x3c9beb5c	0.019033127
227	0xbc86b7dc	-0.016445093
228	0xbc935758	-0.017985985
229	0x3c6fdd8b	0.014640222
230	0xbc9bafb7	-0.019004686
231	0xbcf13063	-0.029442018
232	0x00000000	0.0
233	0xbc24e359	-0.0100639695
234	0xbb922c65	-0.0044608586
235	0xbc4f1f31	-0.012641714
236	0xbc90a1a9	-0.01765521
237	0x3d6b32af	0.057421383
238	0xbc8b3fc0	-0.016998172
239	0xbc84c5a9	-0.016207533
240	0x3ca6b0db	0.020348003
241	0xbbc68ec1	-0.006059498
242	0x00000000	0.0
243	0xbbc9b0a4	-0.0061550904
244	0xbb9677c5	-0.0045919144
245	0xbc26caef	-0.010180219
246	0x3d0a8c62	0.033825286
247	0x3cd29206	0.025704395
248	0xbc9a9b98	-0.018873021
249	0xbb258f54	-0.0025262432
250	0xbc2becc2	-0.010493459
251	0xbce7551f	-0.028238831
252	0xbc913851	-0.017727049
253	0xbc1d82e9	-0.009613731
254	0xbca48d95	-0.020087043
255	0xbc28f415	-0.0103121

model/dense/BiasAdd/ReadVariableOp f4 [256]
0	0xbcb08de7	-0.02155204
1	0xbd7fa074	-0.06240888
2	0xbd6c31e5	-0.05766477
3	0xbbf8bee8	-0.007591117
4	0xbcbf5ec3	-0.023360616
5	0xbd058ac4	-0.03260304
6	0xbc7430dd	-0.014904228
7	0xbd1c44fe	-0.038151734
8	0xbc01c213	-0.007919806
9	0xbd25d0a1	-0.040482167
10	0xbd4ca481	-0.04996157
11	0xbc8e5008	-0.017372146
12	0xbbfb4eb2	-0.0076692933
13	0xbd024d19	-0.031811807
14	0xbcdcf889	-0.02697398
15	0xbd8edde2	-0.069759145
16	0xbcde3602	-0.027125362
17	0xbc0335ce	-0.0080084335
18	0x3bb3183a	0.0054655345
19	0xbcc489fc	-0.023991577
20	0x3ab62e57	0.0013899308
21	0xbd937e03	-0.07201769
22	0xbbf95cb0	-0.007609926
23	0xbd127802	-0.03575898
24	0xbe24f311	-0.16108347
25	0xbc2a1f36	-0.010383418
26	0xbdb7c26a	-0.089726284
27	0xbd00857f	-0.03137731
28	0xbce21463	-0.027597612
29	0xbba76cec	-0.00510942
30	0x00000000	0.0
31	0xbd905659	-0.070477195
32	0xbcd6def6	-0.026229363
33	0xbd37fb24	-0.04491724
34	0xbb395d33	-0.002828431
35	0xbcc9d83e	-0.024639245
36	0xbcec060e	-0.02881148
37	0xbd5ac2a2	-0.053408273
38	0xbc54d1a5	-0.012989436
39	0xbca024e8	-0.019548848
40	0xbdbda41b	-0.09259816
41	0xbc9813c7	-0.018564118
42	0xbb93411f	-0.004493847
43	0xbb46b3f6	-0.0030319667
44	0xbdc18b43	-0.0945039
45	0xbd21d930	-0.039513767
46	0xbd2e6c8d	-0.04258399
47	0xbd662cb2	-0.05619497
48	0xbd36af1d	-0.044600595
49	0x3c619f8e	0.013770951
50	0xbbd604c5	-0.0065313303
51	0xbd59b693	-0.053152632
52	0xbd931f95	-0.07183758
53	0xbcd03205	-0.025414476
54	0xbd15f651	-0.03661186
55	0xbdb8885e	-0.09010385
56	0xbc3b7d67	-0.0114434725
57	0xbd55a2e2	-0.05215729
58	0x00000000	0.0
59	0xbd13afdf	-0.036056396
60	0xbd362f99	-0.044478986
61	0x00000000	0.0
62	0xbdbcd6c4	-0.09220651
63	0xbd4de58f	-0.050267752
64	0xbd25cfff	-0.040481564
65	0x3a8cb5e2	0.0010735358
66	0xbd8effab	-0.069823585
67	0xbd2a295f	-0.04154336
68	0xbcc2994c	-0.023754738
69	0xbd4b7606	-0.049673103
70	0xbd677241	-0.056505445
71	0xbdc6b906	-0.09703259
72	0xbca3d35b	-0.019998243
73	0xbcad4d5f	-0.021155057
74	0xbd092101	-0.03347874
75	0xbd0bdc8a	-0.03414587
76	0x00000000	0.0
77	0xbcdcf1c6	-0.026970755
78	0xbc5d3cdb	-0.013503279
79	0x00000000	0.0
80	0xbd4601b7	-0.04834148
81	0xbd127bfc	-0.035762772
82	0xbd9e48d7	-0.07728737
83	0xbdaab169	-0.083346196
84	0xba8b9572	-0.0010649397
85	0xbd122dfb	-0.03568838
86	0xbcf32190	-0.02967909
87	0xbcdd4e99	-0.027015017
88	0xbc91fa54	-0.017819561
89	0xbd0f6115	-0.035004694
90	0xbcfaca42	-0.030614022
91	0xbdce8600	-0.10084152
92	0x00000000	0.0
93	0xbc28bb5b	-0.010298575
94	0xbc41fb0d	-0.01183964
95	0x3b81d870	0.003962569
96	0xbc9c681c	-0.019092612
97	0xbc6e5126	-0.0145457145
98	0xbd215bc5	-0.03939416
99	0xbc4a942e	-0.01236443
100	0xbcb4099d	-0.02197724
101	0xbb33a458	-0.002741119
102	0xbc871804	-0.016490944
103	0xbd7283ca	-0.059207715
104	0x00000000	0.0
105	0xbd310f85	-0.04322769
106	0xbd98a2a9	-0.074529
107	0xbd296d35	-0.041363914
108	0xbce09c56	-0.027418297
109	0xbcfc0c30	-0.03076753
110	0xbd505808	-0.050865203
111	0xbc976be0	-0.018484056
112	0xbc9b7a2c	-0.018979155
113	0xbd557d2f	-0.052121338
114	0xbcade228	-0.021226004
115	0xbb280ea1	-0.0025643485
116	0xbd2a6194	-0.041596964
117	0x3d85eed6	0.06539695
118	0xbcdb623d	-0.026780242
119	0xbcf0c5a1	-0.029391112
120	0xbcb8d9c7	-0.022564782
121	0xbd05e893	-0.032692503
122	0xbdb5d9d0	-0.08879435
123	0xbc8a11c4	-0.016854174
124	0xbd35d422	-0.04439176
125	0x00000000	0.0
126	0xbaebe295	-0.0017996604
127	0xbccabf42	-0.024749402
128	0xb83a5f47	-4.443459e-05
129	0x3d71157a	0.058858372
130	0x3c695427	0.014241255
131	0xbce47d25	-0.027891705
132	0xbcac860b	-0.02106001
133	0xbd24acff	-0.040204044
134	0xbcb0da64	-0.021588512
135	0x00000000	0.0
136	0xbb51e311	-0.0032026211
137	0xbb088844	-0.0020833174
138	0xbd2a867f	-0.04163217
139	0xbce50742	-0.027957562
140	0xbcf80aba	-0.030278552
141	0xbd065561	-0.032796267
142	0xbdae8b6b	-0.085226856
143	0x00000000	0.0
144	0xbc368c34	-0.0111418255
145	0xba00638f	-0.0004897648
146	0xbd9e4e70	-0.077298045
147	0xbc844a37	-0.01614867
148	0xbdf4add3	-0.11947217
149	0xbd1b458b	-0.03790812
150	0xbcec8761	-0.028873147
151	0xbd9f3bae	-0.07775055
152	0xbca660bd	-0.0203098
153	0xbd3c8979	-0.04602954
154	0xbcabca8b	-0.020970603
155	0x3c59cfb6	0.013294151
156	0xbcfa9e7d	-0.030593151
157	0xbc45bcaf	-0.012068911
158	0x00000000	0.0
159	0xbcc85429	-0.024454193
160	0xbc2e343a	-0.010632569
161	0xb8d26c21	-0.00010033721
162	0xbbb8b376	-0.005636628
163	0x00000000	0.0
164	0xbcfb3227	-0.030663563
165	0xbe1f75d8	-0.15572298
166	0xbd817f9d	-0.063231684
167	0xbcb5f1d6	-0.022210043
168	0xbc9b0586	-0.018923532
169	0xbd812155	-0.06305186
170	0xbcda16f0	-0.026622266
171	0xbcd196d9	-0.025584625
172	0xbd890f16	-0.066923305
173	0xbd288d20	-0.041150212
174	0xbe05817d	-0.13037677
175	0xbd1287cc	-0.035774037
176	0xbb3a6400	-0.0028440952
177	0xbda7a14b	-0.08185061
178	0xbcf73a14	-0.030179061
179	0x3b621ad7	0.003450086
180	0xbd1beb5f	-0.038066264
181	0xbd64bf7c	-0.055846676
182	0xbccc86ee	-0.024966683
183	0xbd5ce31a	-0.05392752
184	0x00000000	0.0
185	0xbc0990a5	-0.008396302
186	0xbc251dc7	-0.0100779
187	0xbd80e4ce	-0.06293641
188	0xbce94d85	-0.028479347
189	0xbc1507d7	-0.009096107
190	0xbcbf10a3	-0.023323363
191	0xbc9cc0b2	-0.019134853
192	0x3c0460a7	0.008079684
193	0xbb45fd0f	-0.003021065
194	0xbcdf81c1	-0.027283551
195	0xbd50ea85	-0.051004905
196	0xbd93436d	-0.07190595
197	0xbc4ff45d	-0.012692538
198	0xbd34cd03	-0.044140827
199	0xbd837325	-0.064184465
200	0x3a0685e0	0.0005131643
201	0xbd6fbe21	-0.05853093
202	0xbcda60e4	-0.02665753
203	0xbce392be	-0.027779933
204	0xbc67dfa9	-0.014152446
205	0xbc40d438	-0.011769347
206	0xbd42cfa8	-0.047561318
207	0xbcfb6216	-0.03068642
208	0x3c912042	0.017715577
209	0xbd1355cf	-0.035970505
210	0xbcea8fa1	-0.02863294
211	0xbd60a2e6	-0.054842852
212	0xbc693855	-0.014234622
213	0x00000000	0.0
214	0xbcd5977a	-0.026073206
215	0xbd8b2729	-0.067945786
216	0xbc165d79	-0.009177559
217	0xbd187ce6	-0.037228487
218	0x3ab473c7	0.0013767414
219	0xbd4b9d05	-0.049710292
220	0xbce718d9	-0.02821009
221	0xbda237b6	-0.07920782
222	0xbc8704ab	-0.016481718
223	0xbc2c0e62	-0.010501476
224	0xbbd996ae	-0.006640277
225	0x00000000	0.0
226	0x00000000	0.0
227	0xbbca24ae	-0.0061689233
228	0xbd2c8978	-0.042123288
229	0xbcada50b	-0.021196863
230	0xbbbcdecb	-0.0057638637
231	0xbc8059c9	-0.015667813
232	0xbcc2e5ee	-0.02379128
233	0xbcafbca4	-0.021452256
234	0xbd0ca899	-0.034340475
235	0xbcbcdd43	-0.023054725
236	0xbd8659d9	-0.06560106
237	0xbc9c2019	-0.019058274
238	0xbda58d91	-0.08083642
239	0xbd12108d	-0.035660315
240	0xbd6485d2	-0.055791683
241	0xbcf48df9	-0.029852854
242	0x3aab2e3d	0.0013060045
243	0xbcb542ff	-0.022126673
244	0x00000000	0.0
245	0xbcf218f9	-0.029552924
246	0xbd1fc831	-0.039009277
247	0xbc9addcc	-0.01890459
248	0xbcbaf51e	-0.02282196
249	0xbd044dad	-0.03230064
250	0x3a08f7cd	0.00052249135
251	0xbc2a3a0a	-0.010389814
252	0x00000000	0.0
253	0xbc1b0227	-0.009460962
254	0xbce304cd	-0.02771225
255	0xbc9953ba	-0.018716682

model/dense/MatMul f4 [256, 4]
0	0xbd39c081	-0.0453496
1	0x3dd732ef	0.10507762
2	0x3d0eeecf	0.034895714
3	0xbdb8ecc7	-0.09029537
4	0x3d8002ff	0.062505715
5	0x3c245e84	0.0100323
6	0x3d11963d	0.03554367
7	0x3c972390	0.018449575
8	0xbcae921d	-0.021309907
9	0x3e2abacd	0.16672821
10	0x3bcf9212	0.0063345516
11	0xbba09433	-0.004900479
12	0x3d06a24e	0.03286963
13	0xbdc6799e	-0.096911654
14	0x3de16e3a	0.11007352
15	0x3a53fba5	0.0008086509
16	0x3daf3f16	0.085569546
17	0x3d7431ea	0.059617914
18	0xbdf461a8	-0.11932689
19	0xbc861988	-0.016369596
20	0xbdaf532a	-0.08560784
21	0xbd05d0f0	-0.03266996
22	0xbd49974c	-0.049216554
23	0x3c243317	0.010021946
24	0xbe0e6172	-0.1390436
25	0x3e365048	0.17804062
26	0xbdc533df	-0.09629034
27	0x3dbe3463	0.09287336
28	0xbda3412c	-0.07971415
29	0x3e315be7	0.17320214
30	0xbc6d4172	-0.014480935
31	0x3d261315	0.04054554
32	0xbde2291d	-0.11042998
33	0xbe43818b	-0.19092385
34	0x3d583653	0.052786183
35	0xbd85dd82	-0.0653639
36	0xbdb27f9b	-0.08715745
37	0x3e739940	0.23788929
38	0xbd6b847d	-0.057499398
39	0xbccc7329	-0.024957256
40	0x3e0d9f6e	0.13830349
41	0xbcc6afd1	-0.024253758
42	0xbd50886c	-0.050911352
43	0x3cc95001	0.024574282
44	0x3d4f4201	0.050600056
45	0x3cb20523	0.021730965
46	0x3b8b7bbf	0.004256695
47	0xbccd81f3	-0.025086379
48	0xbdcc7ddf	-0.099849455
49	0xbd1c9564	-0.038228408
50	0xbd4ebf9f	-0.050475713
51	0xbbc164d3	-0.0059019118
52	0x3e07fe5c	0.13280624
53	0xbc03b6ad	-0.008039159
54	0xbd46e599	-0.048558805
55	0x3cfb1fcb	0.030654809
56	0xbce33d21	-0.02773911
57	0x3d079bd6	0.0331076
58	0x3d29b58c	0.041432902
59	0x3c10b89a	0.008833075
60	0xbd566378	-0.052340955
61	0x3e2fb574	0.17159063
62	0x3c9c9dc5	0.0191182
63	0x3c80a35e	0.0157029
64	0x3e378edf	0.17925595
65	0xbe59c4c8	-0.21266472
66	0xbd4374f7	-0.04771897
67	0xbdf3132f	-0.11868893
68	0xbd3a1774	-0.045432523
69	0x3c2ebd5d	0.010665265
70	0x3d823140	0.0635705
71	0xbafeb64a	-0.0019432988
72	0xbcbb417c	-0.022858374
73	0xbd8d9bb8	-0.069144666
74	0x3e09fd9e	0.13475654
75	0xbe052ccb	-0.13005368
76	0x3e04eaa4	0.12980133
77	0x3db4c704	0.08827022
78	0xbe1f5e8a	-0.15563408
79	0xbd9f8a0a	-0.07790001
80	0x3d65c154	0.056092575
81	0xbec7b5ac	-0.39005792
82	0xbcb9877e	-0.022647616
83	0xbcc6725a	-0.024224449
84	0x3cff5518	0.031168506
85	0xbe643a3e	-0.22287843
86	0x3df993a3	0.121863626
87	0x3e0b4b8c	0.13603038
88	0xbdf42666	-0.119213864
89	0xbd968e78	-0.073513925
90	0xbce5fc4e	-0.02807441
91	0x3db30a93	0.08742251
92	0xbd6cad85	-0.05778267
93	0x3e0dffa4	0.1386705
94	0xbdc6f0a1	-0.09713865
95	0xbda04342	-0.078253284
96	0x3d0eada1	0.034833554
97	0x3e9b8647	0.30375883
98	0x3e34064e	0.1758053
99	0x3e193e38	0.14965141
100	0xbe04115a	-0.12897244
101	0xbda58cee	-0.08083521
102	0x3d9cf2e0	0.07663512
103	0x3d800b07	0.06252103
104	0xbcf78660	-0.030215442
105	0x3de8608c	0.1134654
106	0x3dde79a2	0.10863043
107	0x3ca72034	0.020401098
108	0x3e27ec37	0.16398703
109	0x3e2dc771	0.16970612
110	0x3d0e53b0	0.03474778
111	0xbd514ed6	-0.051100574
112	0x3e1491dc	0.14508766
113	0xbecba48e	-0.39773983
114	0xbde10f79	-0.10989279
115	0x3e909359	0.28237417
116	0x3d443c54	0.047909096
117	0x3cbd2066	0.023086738
118	0xbe2566ad	-0.16152449
119	0xbd3345d1	-0.043767754
120	0x3e0ee056	0.13952765
121	0xbbc030e0	-0.0058652014
122	0x3de9916c	0.1140469
123	0xbcb8dc08	-0.022565857
124	0x3e4046c8	0.18777001
125	0x3d768ad3	0.060190987
126	0x3dd2a9f3	0.102863215
127	0x3d9a1e08	0.07525259
128	0xbce4ff5c	-0.027953796
129	0xbe84166d	-0.2579836
130	0xbcb7e1bf	-0.022446511
131	0x3e0cb12e	0.13739464
132	0x3e0c54f0	0.13704276
133	0xbe11430f	-0.14185737
134	0x3e0a9105	0.13531883
135	0xbdb6e490	-0.089303136
136	0x3df855dc	0.121257514
137	0xbe2c2479	-0.16810788
138	0x3d076403	0.033054363
139	0x3e257df1	0.16161324
140	0x3dfc7a8d	0.12328062
141	0xbd1180a6	-0.03552308
142	0xbdf8133b	-0.12113043
143	0xbd9f45c4	-0.077769786
144	0xbdda96d2	-0.10673298
145	0x3d3b691c	0.045754537
146	0x3d074378	0.033023328
147	0x3ca3368c	0.01992347
148	0x3e1bedd1	0.15227439
149	0x3d84ccad	0.06484351
150	0xbd3b7408	-0.045764953
151	0x3cc70508	0.024294391
152	0x3c435686	0.011922484
153	0xbd009fbe	-0.031402342
154	0xba6e5e46	-0.00090930273
155	0xbb83b44a	-0.004019295
156	0x3e0d820e	0.13819143
157	0x3e87a936	0.26496285
158	0xbcb92286	-0.02259947
159	0xbdbe3888	-0.09288126
160	0x3cdec947	0.027195586
161	0x3d99c61c	0.075084895
162	0x3b1be7bf	0.0023789254
163	0x3c1ad313	0.009449738
164	0x3db9c9cb	0.09071692
165	0x3e0e10c5	0.13873585
166	0xbd47d329	-0.048785362
167	0x3ccee5be	0.025256034
168	0xbe0d8e7e	-0.13823888
169	0xbd7bbc20	-0.061458707
170	0x3df607a2	0.120131746
171	0x3ca4b07d	0.020103687
172	0xbca9987e	-0.020702597
173	0xbe282a19	-0.16422309
174	0xbc616b37	-0.013758472
175	0x3c0d2ff8	0.008617394
176	0x3e4227a5	0.18960436
177	0xbe5e4fbd	-0.21710105
178	0xbd85fdf4	-0.06542578
179	0xbd3125fa	-0.043249108
180	0x3e065de2	0.13121751
181	0x3e2d8048	0.16943467
182	0x3dc75243	0.09732487
183	0x3c80dea8	0.01573117
184	0x3da076c5	0.078351535
185	0xbda8070f	-0.08204471
186	0xbcc59c53	-0.024122393
187	0xbcb43a3e	-0.022000428
188	0xbca40f41	-0.020026805
189	0x3dd5cc8f	0.10439407
190	0x3ddecfad	0.10879455
191	0x3e241b30	0.16025996
192	0xbdb5e7fd	-0.08882139
193	0x3e0bc52a	0.13649431
194	0x3c33b85f	0.01096925
195	0xbc0cfa29	-0.008604565
196	0xbda265fa	-0.07929607
197	0xbe3951ff	-0.18097685
198	0x3cfee315	0.03111414
199	0x3dbd35a6	0.09238748
200	0xbd8e4aee	-0.069478855
201	0x3da2231d	0.079168536
202	0xbbe27cea	-0.0069118636
203	0x3d3a8291	0.045534674
204	0xbd33e403	-0.04391862
205	0x3d7f7dc9	0.062375817
206	0xbd2d82d6	-0.042361103
207	0xbcc6bca7	-0.024259878
208	0x3c607541	0.0136998305
209	0xbdd51d66	-0.10405998
210	0xbe146280	-0.144907
211	0x3ccedf6c	0.02525302
212	0x3d2326e9	0.03983203
213	0x3c83cc9f	0.016088782
214	0x3defae2a	0.11703141
215	0xbcdfc129	-0.027313786
216	0x3e250262	0.1611419
217	0xbd904891	-0.07045091
218	0x3cab939d	0.020944411
219	0xbdd4ff5f	-0.10400271
220	0x3e14d1e0	0.14533186
221	0x3d400d35	0.046887595
222	0x3d4f303e	0.050583117
223	0x3dad5272	0.08462991
224	0x3d1ee068	0.03878823
225	0x3d088873	0.033333253
226	0xbcd22f85	-0.025657425
227	0xbd08dbb1	-0.03341264
228	0x3e1b3bb7	0.15159498
229	0x3e051ae7	0.12998544
230	0xbcb001b7	-0.021485193
231	0x3d2c11b2	0.042009063
232	0x3e10f928	0.14157546
233	0x3d46de48	0.048551828
234	0xbd92d1df	-0.07168936
235	0x3c18a820	0.009317428
236	0x3ddf253f	0.10895776
237	0x3dd5a4fa	0.104318574
238	0x3d93e69f	0.07221722
239	0x3c037c5b	0.008025254
240	0x3e258264	0.16163021
241	0xbead32dc	-0.33827865
242	0x3da9ddce	0.08294259
243	0x3ea3078d	0.31841698
244	0x3dcd0a50	0.100117326
245	0x3db9ed32	0.090784445
246	0x3d17235c	0.036898956
247	0xbccb9950	-0.024853379
248	0x3d00daa3	0.03145851
249	0xbdc03353	-0.09384789
250	0x3d982bae	0.07430206
251	0x3bce9edb	0.006305558
252	0x3df7b969	0.12095911
253	0xbe70f896	-0.23532328
254	0x3e1fb15f	0.15595005
255	0xb94158f0	-0.00018439046

model/dense_1/MatMul f4 [256, 256]
0	0x3bd5c490	0.006523676
1	0x3bb0b700	0.005392909
2	0x3d4a1a76	0.04934164
3	0x3ddd7407	0.10813146
4	0xbc55ee40	-0.0130572915
5	0xbb710b26	-0.0036780327
6	0xbd9d2b34	-0.07674256
7	0xbdc69f71	-0.0969838
8	0xbe9b8a99	-0.3037918
9	0xbe88c375	-0.26711622
10	0x3d48f1c6	0.049058698
11	0x3c6d6090	0.014488354
12	0xbd40d10c	-0.047074363
13	0xbcbc74f8	-0.023004994
14	0xbd868c64	-0.06569746
15	0x3de14950	0.110003114
16	0xbd23bac4	-0.039973035
17	0xbdf6a970	-0.120440364
18	0xbdce2d2d	-0.1006721
19	0xbcf2cdc8	-0.02963914
20	0xbdf0330a	-0.11728485
21	0x3da88895	0.08229176
22	0xbd903d24	-0.07042912
23	0x3d85baf1	0.06529797
24	0x3dd6d46a	0.104897335
25	0xbd900112	-0.07031454
26	0xbd4785ee	-0.04871171
27	0x3db338c1	0.08751059
28	0xbd2bb732	-0.041922756
29	0x3dd0470b	0.101698
30	0x3d539ff2	0.051666208
31	0xbd80c2aa	-0.06287129
32	0xbdbe0877	-0.09278958
33	0xb916be00	-0.00014375895
34	0xbd7bc3b4	-0.061465934
35	0x3d8cb88f	0.06871139
36	0xbdc15794	-0.09440532
37	0x3d212b72	0.039348073
38	0x3da547a5	0.08070306
39	0x3d6f6aca	0.05845145
40	0x3c9d777c	0.019222014
41	0x3d3d34a2	0.046192773
42	0x3c42666b	0.011865239
43	0xbdb2b0eb	-0.08725151
44	0xbc934138	-0.017975435
45	0xbc951318	-0.018197581
46	0x3dc7d507	0.097574286
47	0xbd533b56	-0.05157026
48	0x3c06d4af	0.008229419
49	0xbcb30264	-0.021851726
50	0xbd061352	-0.03273327
51	0xbd42441a	-0.047428228
52	0xbde2f003	-0.11080935
53	0xbd0ce4cc	-0.034397885
54	0xbaccf340	-0.0015636459
55	0xbcbb6fc6	-0.022880446
56	0xbb828aa0	-0.0039838105
57	0xbce7c724	-0.0282932
58	0x3d9065f5	0.07050697
59	0xbbf932b0	-0.0076049194
60	0x3d95cc5c	0.07314369
61	0x3d1bcaca	0.03803519
62	0x3d9613b7	0.07327979
63	0xbdc20a2d	-0.09474597
64	0xbcf97d0c	-0.030455135
65	0xbcdc2336	-0.026872259
66	0x3c2c0f90	0.010501757
67	0xbe88c89a	-0.26715547
68	0x3dcf34fd	0.101175286
69	0x3dc6a37b	0.0969915
70	0x3d2ba8e7	0.041909125
71	0xbd524c74	-0.051342443
72	0x3c91787c	0.017757647
73	0xbc3c6e60	-0.011500925
74	0xbd824b46	-0.063620135
75	0xbd2ff09a	-0.042954065
76	0x3d72b396	0.059253298
77	0xbdafdfe7	-0.08587628
78	0x3d82d88d	0.0638896
79	0x3d715d22	0.05892671
80	0xbbefa920	-0.0073138624
81	0x3df82d77	0.12118047
82	0xbd8634b7	-0.06553023
83	0xbd2832ac	-0.04106395
84	0xbd8101e8	-0.06299192
85	0xbbc5f070	-0.0060406253
86	0x3d927a81	0.07152272
87	0x3d4d341a	0.050098516
88	0xbca1f32c	-0.019769274
89	0xbc1f66b9	-0.009729081
90	0x3db952ff	0.090490334
91	0xbdcea657	-0.100903206
92	0xbc2d5a10	-0.010580555
93	0x3cbf0554	0.02331797
94	0x3c4d504b	0.01253135
95	0x3dbbad5f	0.09163927
96	0x3a1a99f2	0.00058975734
97	0xbd942a9a	-0.07234688
98	0x3c6d23d8	0.014473878
99	0xbdd3e0cb	-0.1034561
100	0xbddaadae	-0.10677658
101	0xbda15370	-0.078772426
102	0xbda4d068	-0.08047563
103	0xbdc1b7cf	-0.09458887
104	0xbd3e61aa	-0.04647986
105	0x3cf1b73c	0.029506318
106	0xbd411413	-0.047138285
107	0x3c6df8a5	0.0145246135
108	0x3d949665	0.07255248
109	0xbbe66766	-0.007031369
110	0xbc872e28	-0.016501501
111	0xbd87c6df	-0.066297285
112	0xbdc5e8e1	-0.09663559
113	0x3cbd2abc	0.023091666
114	0x3dc70855	0.09718386
115	0xbcde068c	-0.027102731
116	0xbd82f72c	-0.063948005
117	0xbbe9b170	-0.007131748
118	0x3d05353e	0.03252148
119	0x3d785c5a	0.06063495
120	0xbce35510	-0.027750522
121	0xbdbc7d1c	-0.0920355
122	0xbda39f25	-0.07989339
123	0x3de1907e	0.11013888
124	0xbdad9396	-0.084754154
125	0x3d947c4b	0.072502695
126	0x3d91c07c	0.071167916
127	0x3ddc527f	0.107579224
128	0x3d89e773	0.067335986
129	0xbddd51db	-0.10806628
130	0xbdcac090	-0.0990001
131	0xbc4517d8	-0.012029611
132	0x3c464f2a	0.012103835
133	0x3dab4b85	0.083640136
134	0x3da3656b	0.07978328
135	0x3c97414c	0.018463753
136	0x3d148045	0.03625514
137	0x3d6c5f8e	0.057708316
138	0xbc41c3e0	-0.011826485
139	0xbdc3d2fb	-0.09561726
140	0xbe07eb30	-0.1327331
141	0xbce41c21	-0.027845444
142	0xbd4ca3ef	-0.049961027
143	0x3cde1bec	0.027112924
144	0x3db543ff	0.0885086
145	0x3d7061d0	0.05868703
146	0x3d828000	0.0637207
147	0x3c2f9020	0.010715514
148	0xbd870b0e	-0.065939054
149	0xbda6673e	-0.08125161
150	0xbbb23d60	-0.0054394454
151	0x3cb47b94	0.022031583
152	0xbdbae47e	-0.09125613
153	0xbd9a632a	-0.07538445
154	0xbdda20f0	-0.106508136
155	0x3bc19bb4	0.005908454
156	0xbeae3c7f	-0.3403053
157	0x3de2d909	0.110765524
158	0xbbf61010	-0.007509239
159	0xbd323908	-0.04351142
160	0xbd0de414	-0.03464134
161	0xbc8351c0	-0.016030192
162	0x3d5474ab	0.051869076
163	0x3dcb8ce9	0.09938986
164	0x3d24aaee	0.040202074
165	0xbc0de22d	-0.008659882
166	0xbd355858	-0.044273704
167	0xbd0d72be	-0.034533255
168	0xbd103634	-0.035207942
169	0x3d361106	0.04444983
170	0x3ddaa0fd	0.10675237
171	0xbdd002f8	-0.10156816
172	0xbce32b3c	-0.027730577
173	0x3d93846f	0.07202994
174	0x3d6a1760	0.0571512
175	0xbd85da95	-0.06535832
176	0xbd766691	-0.06015641
177	0x3d07f2b2	0.033190437
178	0xbd967521	-0.07346559
179	0xbd41b914	-0.047295645
180	0xbd108200	-0.035280228
181	0x3dd269f5	0.10274116
182	0x3dac9dbc	0.08428523
183	0xbd32a97a	-0.043618657
184	0xbd825396	-0.06363599
185	0xbdb483fe	-0.08814238
186	0xbb547b80	-0.0032422245
187	0x3dab8eb5	0.083768286
188	0x3d888951	0.06666816
189	0xbdc06171	-0.093935855
190	0xbd83fa2b	-0.064442
191	0x3d905909	0.07048232
192	0x3d992a8f	0.074788205
193	0x3a0a3b80	0.00052731484
194	0xbc5234f8	-0.012830012
195	0x3d851ccf	0.064996354
196	0x3c6db150	0.014507607
197	0x3dc610ad	0.096711494
198	0xbcf99666	-0.030467223
199	0x3cbf6281	0.0233624
200	0xbd5657db	-0.05232988
201	0x3d83c5fd	0.06434248
202	0x3d45b72e	0.048270397
203	0xbdab82b0	-0.08374536
204	0xbdac7bcb	-0.08422049
205	0x3ce73fb4	0.028228618
206	0xbe768287	-0.2407323
207	0x3ba92784	0.0051621813
208	0x39b34f95	0.00034200834
209	0xbd4d16b5	-0.050070483
210	0x3bf01bb1	0.00732752
211	0x3cd24698	0.025668427
212	0xbdd579d1	-0.10423625
213	0x3d5b88e2	0.05359734
214	0x3dae7860	0.085190535
215	0x3c7d4818	0.015459083
216	0xbe881960	-0.2658186
217	0xbc960ddc	-0.018317156
218	0x3d80b67f	0.06284808
219	0xbdaca7c2	-0.08430435
220	0xbdc5a6ea	-0.09650977
221	0xbd46400e	-0.04840093
222	0xbdd44e93	-0.10366549
223	0x3d419990	0.04726559
224	0x3c922fe4	0.017845102
225	0x3d9b471b	0.07581922
226	0xbd650289	-0.05591062
227	0xbe5f30a7	-0.21795903
228	0xbd82f493	-0.06394305
229	0xbccfd07a	-0.025367964
230	0xbdd306f3	-0.1030406
231	0x3dc25882	0.09489538
232	0xbdd1b0cd	-0.102388
233	0xbcae3cd1	-0.021269234
234	0xbd288885	-0.04114582
235	0x3d9c35a5	0.076274194
236	0x3d7794e2	0.06044472
237	0x3dd72bd3	0.10506406
238	0x3ddc586d	0.107590534
239	0x3d4545ae	0.048162155
240	0x3cbfa0dc	0.023392133
241	0x3dd6dc17	0.104911976
242	0xbc204560	-0.009782165
243	0xbbeb09b0	-0.0071727857
244	0x3d759236	0.05995389
245	0x3d9047c1	0.07044936
246	0x3d113e60	0.035459876
247	0xbdb339e4	-0.08751276
248	0x3ceaed2c	0.028677545
249	0xba79e580	-0.00095327944
250	0xbdd82888	-0.10554606
251	0xbdaa1cea	-0.08306296
252	0x3dcc76ff	0.09983634
253	0xbe89a3e6	-0.26882857
254	0xbd5e127b	-0.054216843
255	0x3a45b780	0.0007542297

model/dense_2/MatMul f4 [1, 256]
0	0x3e026d94	0.12737113
1	0x3e169edb	0.14709036
2	0xbe69e635	-0.22841723
3	0xbdd65164	-0.10464743
4	0xbe109ac3	-0.14121537
5	0x3e75c6ba	0.2400159
6	0x3e45e4c3	0.19325547
7	0xbe6d2e63	-0.23162226
8	0xbe8890e6	-0.2667305
9	0xbe5cbe65	-0.21557005
10	0x3d54ff2f	0.052001175
11	0xbdd40bd4	-0.103538185
12	0x3b712cee	0.0036800462
13	0x3d38c463	0.045109164
14	0xbe4fe991	-0.20303942
15	0x3d9c99d2	0.076465264
16	0xbe716b06	-0.23575982
17	0x3d3ecbb9	0.046581004
18	0xbe445bc1	-0.19175626
19	0xbe80b67d	-0.25139228
20	0x3daa8526	0.08326177
21	0xbe377e44	-0.1791926
22	0xbe8568b9	-0.2605646
23	0x3e008509	0.12550749
24	0x3e60848f	0.21925567
25	0xbe5559ac	-0.20834988
26	0x3e21162b	0.15731113
27	0xbe0ddab2	-0.13852957
28	0xbcba76d6	-0.022761744
29	0xbdd47ea9	-0.10375721
30	0x3e3a678a	0.1820356
31	0xbc94d58e	-0.018168237
32	0xbde4e447	-0.11176353
33	0x3e135d4d	0.1439106
34	0xbd5a61ae	-0.05331581
35	0x3e408368	0.18800128
36	0xbd7f6f21	-0.06236184
37	0xbd7c945c	-0.061664924
38	0xbe3f0ee4	-0.18658024
39	0x3c4bc5b1	0.01243727
40	0xbc0e89d5	-0.008699854
41	0xbe40b9d7	-0.18820892
42	0x3e868ab1	0.26277688
43	0x3e87958d	0.26481286
44	0x3e3b0db7	0.1826695
45	0x3e53ec37	0.20695578
46	0xbcf5c146	-0.029999387
47	0xbe296298	-0.16541517
48	0x3c0b94f6	0.008519402
49	0xbe430d23	-0.1904798
50	0xbc2ff8b4	-0.010740448
51	0xbd81518a	-0.063143805
52	0x3db2565a	0.087078765
53	0xbe81fbce	-0.25387424
54	0xbb4b6c6a	-0.0031039962
55	0xbe14556b	-0.1448571
56	0x3e70b2aa	0.23505655
57	0xbe152ba9	-0.14567436
58	0x3e446f02	0.19182971
59	0x3d98d494	0.07462421
60	0xbe89ec31	-0.26938012
61	0x3cc5c8fb	0.024143687
62	0x3e42443b	0.1897134
63	0x3e01cbca	0.12675396
64	0x3b26abc6	0.0025431975
65	0x3be78c5f	0.007066294
66	0x3c0e0141	0.008667291
67	0x3e5f6740	0.2181673
68	0x3ccd70ba	0.025078166
69	0xbe178191	-0.1479552
70	0xbd437dbc	-0.04772733
71	0x3d02cf5b	0.03193603
72	0xbe3f0432	-0.18653944
73	0x3ddabc09	0.10680396
74	0xbe4902e7	-0.19630013
75	0x37392900	1.1036405e-05
76	0xbd6bf305	-0.05760481
77	0xbd4c5738	-0.049887866
78	0x3e6e2a06	0.23258218
79	0x3e26e75c	0.16299194
80	0x3cecd79a	0.0289114
81	0x3d8cc298	0.06873053
82	0x3e2c0402	0.16798404
83	0x3bcce281	0.0062525873
84	0x3dab6a1d	0.08369849
85	0xbe3823ea	-0.1798245
86	0x3dd14619	0.10218448
87	0xbe2724f6	-0.16322693
88	0xbe22a463	-0.15883021
89	0x3b9fe484	0.004879536
90	0x3dc6b93b	0.09703299
91	0xbdd644ac	-0.10462317
92	0xbe73f17c	-0.23822588
93	0x3c540801	0.012941361
94	0xbe4316ee	-0.19051716
95	0xbd9d891b	-0.076921664
96	0xbe5998e0	-0.21249723
97	0xbe51ebff	-0.20500182
98	0x3e2bc208	0.16773236
99	0x3e5c953a	0.215413
100	0xbc1b26a3	-0.009469661
101	0xbe106a49	-0.14103045
102	0x3dc0982b	0.09404024
103	0x3e413d39	0.18871011
104	0xbc424bf5	-0.01185893
105	0x3e802d3a	0.25034505
106	0x3dc6ff7a	0.09716697
107	0x3d515507	0.05110648
108	0xbd695daa	-0.05697409
109	0x3ddbe1d3	0.10736432
110	0xbdb02574	-0.086008936
111	0x3b609df6	0.003427384
112	0xbe200283	-0.15625958
113	0x3e01a7d3	0.12661676
114	0xbdf4f4d0	-0.11960757
115	0xbd04f188	-0.032456905
116	0xba860069	-0.0010223511
117	0xbe2d6f7d	-0.1693706
118	0xbd9b4d75	-0.07583133
119	0xbe11b881	-0.14230539
120	0xbd45aa54	-0.04825814
121	0xbe1d5a81	-0.15366556
122	0x3dbaa91b	0.091142856
123	0xbd44854f	-0.047978695
124	0x3b0b02e0	0.002121143
125	0x3b4f84f8	0.003166495
126	0xbe6a7d92	-0.22899464
127	0x3e3e0a7e	0.1855869
128	0xbe1a84dc	-0.15089744
129	0xbd9027fa	-0.07038875
130	0x3d967f43	0.07348492
131	0xbe2644b2	-0.16237143
132	0xbe316f18	-0.17327535
133	0x3c05abc3	0.008158627
134	0xbd0193df	-0.03163516
135	0xbb431bc6	-0.0029771193
136	0xbe755345	-0.23957546
137	0x3daeeece	0.08541642
138	0x3e432a25	0.19059046
139	0xbdcb570f	-0.099287145
140	0xbdcecb68	-0.100973904
141	0xbcd47f49	-0.0259396
142	0x3e669c34	0.22520524
143	0xbe189837	-0.14901815
144	0xbc1a9794	-0.009435553
145	0xbe65076b	-0.22366111
146	0x3e81fa9c	0.25386512
147	0xbddd4ca0	-0.10805631
148	0xbdd99232	-0.10623588
149	0xbcb31795	-0.02186183
150	0xbdf5f6f8	-0.12009996
151	0x3df28b1d	0.1184294
152	0xbe4035f4	-0.18770581
153	0xbc5c36a4	-0.013440762
154	0x3e37a9be	0.17935845
155	0x3b180e48	0.0023201872
156	0x3d8d1f36	0.06890719
157	0x3b9c515a	0.00477044
158	0xbe64e78e	-0.22353956
159	0xbe257ea5	-0.16161592
160	0xbdb991c7	-0.09061008
161	0xbdc2f0b2	-0.09518565
162	0xbe117499	-0.14204635
163	0x3b80165d	0.003908916
164	0x3e769483	0.2408009
165	0xbdb9c265	-0.09070281
166	0xbde1a5b7	-0.11017936
167	0xbf352f39	-0.7077518
168	0x3e069996	0.13144526
169	0xba9ae256	-0.0011816721
170	0x3e1b7230	0.15180278
171	0xbd8fa416	-0.07013719
172	0x3df51623	0.11967113
173	0x3d6d40d3	0.05792315
174	0x3e1edbf2	0.1551359
175	0xbdaa255c	-0.08307907
176	0xbde8f301	-0.11374474
177	0xbe7eee4f	-0.24895595
178	0x3e2cbe97	0.1686958
179	0x3b1a117f	0.0023508964
180	0x3e075e39	0.13219537
181	0x3e6d59c3	0.23178773
182	0xbdf26d95	-0.11837307
183	0xbe3e8be5	-0.18608053
184	0x3e0e17d0	0.13876271
185	0xbe492bf0	-0.19645667
186	0x3e425db4	0.18981057
187	0x3e342fb8	0.17596328
188	0x3e07941f	0.13240097
189	0xbe25fd88	-0.16209996
190	0x3e1d8329	0.15382065
191	0x3d1b2514	0.037877157
192	0x3c86e54b	0.016466757
193	0xbe6aa691	-0.22915103
194	0x3c9240c2	0.017853145
195	0xbe2d1d44	-0.16905695
196	0x3e5d5a70	0.2161653
197	0xbc3b69eb	-0.011438827
198	0xbd712d19	-0.0588809
199	0x3e016fd6	0.12640318
200	0xbd8bbc0a	-0.06822975
201	0x3941b802	0.00018474463
202	0xbe3fd90d	-0.18735142
203	0xbde8674c	-0.11347827
204	0x3db10ee3	0.086454175
205	0x3db6ea33	0.08931389
206	0x3e04d47e	0.12971684
207	0x3e8c4b3c	0.2740115
208	0xbe386f6f	-0.18011259
209	0x3a32f781	0.0006827042
210	0xbcc6ee5b	-0.024283579
211	0x3e0fdbda	0.1404871
212	0xbdb2d592	-0.087321416
213	0x3e54a399	0.20765533
214	0xbe4d388a	-0.20041099
215	0xb9d75fc6	-0.00041079352
216	0xbad302c3	-0.0016098846
217	0x3c3b5541	0.0114339
218	0x3c95ce5b	0.018286875
219	0x3e2668f1	0.1625097
220	0x3a5251b9	0.0008023042
221	0xbe296e8d	-0.16546078
222	0x3d4b84d1	0.04968721
223	0x3de62fb3	0.11239567
224	0x3e291fe0	0.16516066
225	0x3dd6e161	0.10492206
226	0xbd799d89	-0.060941253
227	0x3e06f9a1	0.13181163
228	0x3d4876cf	0.04894143
229	0xbeae09cd	-0.33991852
230	0x3d7ef05f	0.062240954
231	0xbd66d988	-0.056359798
232	0x3e82d09c	0.2554978
233	0x3dc50933	0.09620895
234	0xbd9055f7	-0.070476465
235	0xbc40b369	-0.011761525
236	0xbdb419a5	-0.08793954
237	0xbe932724	-0.287408
238	0xbe214270	-0.15748
239	0x3df34de6	0.11880092
240	0x3dcb413d	0.099245526
241	0xbd9d58b9	-0.07682938
242	0xbdbdbdf0	-0.09264743
243	0xbc549ce0	-0.012976855
244	0xbe90b4f2	-0.2826305
245	0xbe259ec4	-0.16173846
246	0x3e88590b	0.26630434
247	0xbe793782	-0.24337581
248	0x3e0eee4e	0.13958094
249	0x3e1ba747	0.1520053
250	0x3e53eac6	0.20695028
251	0xbcd8f6ef	-0.026484935
252	0x3d708d41	0.05872846
253	0x3b13919b	0.0022517208
254	0x3e3b6652	0.18300751
255	0x3d7131e1	0.05888546
